…
   "execution_count": 30,
   "id": "9c6bd4c7",
   "metadata": {
    "colab": {
     "base_uri": "https://localhost:8080/"
    },
    "id": "9c6bd4c7",
    "outputId": "9d5eb6dd-ed07-46ee-978f-8c3ec1343d2a"
   },
   "outputs": [
    {
     "name": "stdout",
     "output_type": "stream",
     "text": [
      "Model: \"sequential\"\n",
      "_________________________________________________________________\n",
      " Layer (type)                Output Shape              Param #   \n",
      "=================================================================\n",
      " conv2d (Conv2D)             (None, 62, 62, 32)        896       \n",
      "                                                                 \n",
      " batch_normalization (BatchN  (None, 62, 62, 32)       128       \n",
      " ormalization)                                                   \n",
      "                                                                 \n",
      " activation (Activation)     (None, 62, 62, 32)        0         \n",
      "                                                                 \n",
      " max_pooling2d (MaxPooling2D  (None, 31, 31, 32)       0         \n",
      " )                                                               \n",
      "                                                                 \n",
      " conv2d_1 (Conv2D)           (None, 29, 29, 64)        18496     \n",
      "                                                                 \n",
      " batch_normalization_1 (Batc  (None, 29, 29, 64)       256       \n",
      " hNormalization)                                                 \n",
      "                                                                 \n",
      " activation_1 (Activation)   (None, 29, 29, 64)        0         \n",
      "                                                                 \n",
      " max_pooling2d_1 (MaxPooling  (None, 14, 14, 64)       0         \n",
      " 2D)                                                             \n",
      "                                                                 \n",
      " conv2d_2 (Conv2D)           (None, 12, 12, 128)       73856     \n",
      "                                                                 \n",
      " batch_normalization_2 (Batc  (None, 12, 12, 128)      512       \n",
      " hNormalization)                                                 \n",
      "                                                                 \n",
      " activation_2 (Activation)   (None, 12, 12, 128)       0         \n",
      "                                                                 \n",
      " max_pooling2d_2 (MaxPooling  (None, 6, 6, 128)        0         \n",
      " 2D)                                                             \n",
      "                                                                 \n",
      " flatten (Flatten)           (None, 4608)              0         \n",
      "                                                                 \n",
      " dense (Dense)               (None, 256)               1179904   \n",
      "                                                                 \n",
      " batch_normalization_3 (Batc  (None, 256)              1024      \n",
      " hNormalization)                                                 \n",
      "                                                                 \n",
      " activation_3 (Activation)   (None, 256)               0         \n",
      "                                                                 \n",
      " dropout (Dropout)           (None, 256)               0         \n",
      "                                                                 \n",
      " dense_1 (Dense)             (None, 1)                 257       \n",
      "                                                                 \n",
      " activation_4 (Activation)   (None, 1)                 0         \n",
      "                                                                 \n",
      "=================================================================\n",
      "Total params: 1,275,329\n",
      "Trainable params: 1,274,369\n",
      "Non-trainable params: 960\n",
      "_________________________________________________________________\n"
     ]
    }
   ],
   "source": [
    "model = Sequential()\n",
…
